Learning_from_images/jupter_files/ex3/cifar_net.pth (torch_old, 249582 bytes, 10 tensors)

conv1.weight f4 [6, 3, 5, 5]
0	0x3d2bed7b	0.041974526
1	0xbdd91b91	-0.10600961
2	0xbe1ec912	-0.1550639
3	0xbe064437	-0.1311196
4	0x3cdb02ef	0.026734797
5	0x3d0812a9	0.03322092
6	0xbe9a290e	-0.30109447
7	0x3d837608	0.06418997
8	0x3e19c2db	0.15015738
9	0xbe747bb2	-0.23875311
10	0x3db6860e	0.08912288
11	0xbead7586	-0.33878726
12	0x3e7b51ee	0.24542972
13	0x3e983b30	0.29732656
14	0xbef05549	-0.46940067
15	0xbb32521a	-0.002720958
16	0xbeb9a3e6	-0.36257857
17	0x3e776f2f	0.24163507
18	0x3ebb8a13	0.3662878
19	0xbebc6f3c	-0.36803615
20	0x3e7b12bb	0.24518864
21	0xbeb6ed24	-0.357278
22	0x3e68f488	0.22749531
23	0x3e0e365c	0.13887924
24	0xbedea673	-0.43486366
25	0x3e28a117	0.16467701
26	0x3dce3ad2	0.10069813
27	0x3d414183	0.047181617
28	0x3de445b2	0.11146106
29	0x3c520c48	0.012820311
30	0x3e556a77	0.20841394
31	0xbe15d761	-0.14632942
32	0x3e7a84c9	0.24464716
33	0x3e81ded5	0.2536532
34	0xbe25c7d1	-0.16189505
35	0x3e153128	0.14569533
36	0xbec019d1	-0.37519696
37	0x3eaf15b4	0.34196246
38	0x3eb17ea5	0.34666935
39	0xbe672cf2	-0.22575739
40	0x3e768ee7	0.2407795
41	0xbe6fb820	-0.23410082
42	0x3ef7bec4	0.4838773
43	0x3f19bee5	0.60056907
44	0xbedef5c5	-0.43546882
45	0x3e8dd5ac	0.2770208
46	0xbe860bd9	-0.26180914
47	0x3e843f9f	0.2582979
48	0x3e60c803	0.21951298
49	0xbe855d50	-0.26047754
50	0xbd390ad7	-0.045176353
51	0x3c85a4d2	0.016313944
52	0xbce10ec1	-0.027472856
53	0x3d9be8e2	0.07612778
54	0x3d4090ad	0.047012974
55	0x3d9fc077	0.07800382
56	0xbe3236c7	-0.17403708
57	0xbc12f595	-0.008969684
58	0x3db143ec	0.08655533
59	0xbdb9c15e	-0.09070085
60	0x3db6f093	0.08932605
61	0xbee12dc2	-0.43980223
62	0x3d6db3e9	0.058032904
63	0x3e89302d	0.26794568
64	0xbe765b25	-0.24058206
65	0xbd4ad9f7	-0.049524274
66	0xbefdfa25	-0.49604908
67	0x3e987ad0	0.29781199
68	0x3ed4846a	0.41507274
69	0xbeec5347	-0.46157286
70	0x3e1df6b3	0.1542614
71	0xbea173c2	-0.3153363
72	0x3de46765	0.111525334
73	0x3d9699a8	0.07353526
74	0xbe914c89	-0.28378704
75	0x3e47d683	0.19515423
76	0x3e87ffcb	0.26562342
77	0x3e8cff6a	0.27538615
78	0x3e9ee072	0.31030613
79	0x3e4df357	0.20112358
80	0xbe78f100	-0.24310684
81	0xbea7ec25	-0.3279735
82	0xbea1b3f6	-0.31582612
83	0xbe8334a6	-0.25626105
84	0xbdbc6f5b	-0.09200927
85	0xbe7ea504	-0.24867636
86	0xbec083db	-0.37600598
87	0xbe9bccd4	-0.3042971
88	0xbead8577	-0.33890888
89	0xbe5c78ed	-0.21530505
90	0x3dc50d10	0.09621632
91	0x3daf8e5a	0.08572073
92	0xbc8eec94	-0.017446794
93	0x3d5b3236	0.05351468
94	0xbda1450a	-0.07874496
95	0xbdb90dfe	-0.09035872
96	0xbb479140	-0.0030451566
97	0xbc1ca396	-0.009560486
98	0xbdcb6c45	-0.0993276
99	0xbdd4c13f	-0.10388421
100	0x3e88d733	0.26726684
101	0x3ec0f114	0.37683928
102	0x3f0130b8	0.50464964
103	0x3ec0cb11	0.37654927
104	0x3e60cd52	0.21953323
105	0x3cce8353	0.025209105
106	0xbe38c715	-0.18044694
107	0xbddc4ec6	-0.10757212
108	0xbe2e8cb5	-0.17045863
109	0xbdc9435b	-0.098273
110	0xbe0cf655	-0.13765843
111	0xbe5ac469	-0.21363987
112	0xbdc0a62e	-0.09406696
113	0xbe3429f2	-0.17594126
114	0xbdb024de	-0.08600782
115	0x3e291cd8	0.1651491
116	0x3e49249f	0.19642876
117	0x3e0d2089	0.13781942
118	0x39dbea8c	0.00041945686
119	0x3cf393e7	0.029733611
120	0xbd7415f7	-0.05959126
121	0xbe0bc40d	-0.13649006
122	0x3d1c41d0	0.0381487
123	0xbdb663db	-0.08905765
124	0xbd7bebc3	-0.061504137
125	0x3e18b0aa	0.14911142
126	0x3e4b3803	0.19845586
127	0x3e9412e2	0.28920656
128	0x3e43d690	0.19124818
129	0x3cdc9d23	0.026930397
130	0xbd64f4aa	-0.055897392
131	0xbd6264eb	-0.055272024
132	0xbdfc7166	-0.123263165
133	0xbd10f6d9	-0.035391662
134	0x3d8320c8	0.06402737
135	0xbdb686e9	-0.08912451
136	0xbd8832ae	-0.066502914
137	0xbdb4c1ac	-0.088260025
138	0xbdb900fe	-0.09033392
139	0x3e179204	0.14801794
140	0x3e54ff78	0.20800579
141	0x3da1af9b	0.07894822
142	0x3e41839b	0.1889786
143	0x3e646b9c	0.22306675
144	0x3cfb753d	0.030695552
145	0x3be5353d	0.006994872
146	0x3b4d61fe	0.0031338925
147	0xbd8a4ca9	-0.06752903
148	0x3c59ad46	0.0132859405
149	0xbc5eb9ba	-0.013594085
150	0x3e35cfdb	0.17755072
151	0x3e926aa8	0.28596997
152	0x3eaea042	0.34106642
153	0x3d625ba1	0.055263165
154	0x3d87b4a3	0.066262506
155	0x3e9233ad	0.2855505
156	0x3ecb7cc1	0.39743617
157	0x3e9674ca	0.29385978
158	0x3b94ae8d	0.0045374096
159	0xbd69c73a	-0.057074763
160	0xbe6fa866	-0.23404083
161	0xbe3bd5c3	-0.18343262
162	0xbec3b4d2	-0.38223892
163	0xbec1b36c	-0.378322
164	0xbe94196b	-0.28925642
165	0xbdd84494	-0.10559955
166	0xbe1d6422	-0.15370229
167	0xbdaac23c	-0.083378285
168	0xbd86d76f	-0.065840594
169	0x3e322833	0.17398147
170	0x3d80860e	0.06275569
171	0x3e8133d9	0.2523487
172	0x3e9971b9	0.29969576
173	0x3e32ebe2	0.17472795
174	0x3d159be0	0.036525607
175	0xbd630e79	-0.055433724
176	0xbb311a2e	-0.002702366
177	0x3e239b5f	0.15977238
178	0xbd79d2d4	-0.060992077
179	0xbdd251b4	-0.1026949
180	0x3c6d74b1	0.014493153
181	0x3c9fce9d	0.0195077
182	0xbe045a14	-0.12924987
183	0xbd7f005b	-0.0622562
184	0xbe770a69	-0.24125065
185	0xbe8aab45	-0.27083793
186	0xbee91fe1	-0.45532134
187	0xbf049854	-0.51794934
188	0xbebaa2e0	-0.3645239
189	0xbe48ea48	-0.19620621
190	0xbe56110d	-0.20904942
191	0xbd25f689	-0.040518317
192	0xbdacc830	-0.0843662
193	0x3de7d352	0.11319603
194	0x3d095fc1	0.033538584
195	0x3d6e908b	0.058243316
196	0x3e4d883a	0.20071498
197	0x3ec461e5	0.38355938
198	0x3ebaf951	0.36518338
199	0x3e244dc2	0.16045287
200	0xbc50039e	-0.012696175
201	0x3d090ee0	0.03346145
202	0x3bbda22d	0.005787155
203	0xbcbc74f5	-0.023004988
204	0x3d91a4f6	0.07111542
205	0x3e920a55	0.28523508
206	0x3ddc67cf	0.107619874
207	0x3e1dbcbe	0.1540403
208	0x3cfec3f5	0.031099299
209	0x3db5e7f1	0.0888213
210	0xbe15db10	-0.14634347
211	0xbea07179	-0.31336573
212	0xbee2a652	-0.44267517
213	0xbe0fa23e	-0.14026734
214	0xbe0d7572	-0.13814333
215	0xbdacc410	-0.084358335
216	0xbe04e385	-0.12977417
217	0xbdc73245	-0.09726385
218	0x3e18700c	0.14886492
219	0x3e30617b	0.17224686
220	0x3de858e1	0.11345077
221	0x3e930ebc	0.2872218
222	0x3ea7cefb	0.327751
223	0x3e5bed35	0.21477206
224	0x3e7246d5	0.23659833
225	0xbe154325	-0.14576395
226	0xbe7755bf	-0.24153803
227	0xbea63436	-0.3246171
228	0xbe1179ab	-0.14206569
229	0xbe3f9e95	-0.18712838
230	0xb8f3d6a0	-0.0001162712
231	0x3d8d546b	0.06900867
232	0xbcb922b2	-0.022599552
233	0xbc8aca00	-0.016942024
234	0xbdf81227	-0.12112837
235	0xbbe018b7	-0.0068388837
236	0x3e623a7c	0.22092623
237	0x3e03c8bd	0.12869544
238	0x3d8237c0	0.0635829
239	0xbd46f296	-0.04857119
240	0x3e50ea6b	0.20401923
241	0x3e6b9e26	0.23009548
242	0x3e0f5d4a	0.1400043
243	0x3de56a88	0.1120196
244	0x3e2003bc	0.15626425
245	0x3e5d6ae9	0.21622814
246	0x3e136ac9	0.14396204
247	0x3e007efd	0.12548442
248	0x3e6ba1ab	0.2301089
249	0x3e576270	0.21033645
250	0xbd08f4f3	-0.033436727
251	0x3d00320c	0.03129773
252	0xbd8ee67d	-0.06977556
253	0xbd57293c	-0.05252956
254	0x3da727e9	0.08161909
255	0x3cdccddc	0.02695363

conv1.bias f4 [6]
0	0xbe0206d4	-0.12697917
1	0xbec8a29a	-0.39186555
2	0xbe597e26	-0.21239528
3	0x3d6c7b9d	0.057735074
4	0xbe97462b	-0.2954572
5	0x3ea88e78	0.32921195

conv2.weight f4 [16, 6, 5, 5]
0	0xbde65359	-0.11246366
1	0xbdb9916a	-0.09060939
2	0xbda0f33e	-0.07858895
3	0xbda3595a	-0.07976027
4	0xbdbebe9c	-0.093136996
5	0xbd942271	-0.07233132
6	0x3bfa57c8	0.007639859
7	0xbd6f0205	-0.058351535
8	0xbd3fb49b	-0.0468031
9	0xbda32eb9	-0.07967896
10	0x3c12d451	0.008961753
11	0xbd68ada4	-0.05680622
12	0x3d4a1265	0.04933395
13	0xbcda6e7e	-0.026664015
14	0xbe196192	-0.14978626
15	0x3c997960	0.018734634
16	0xbd8f6922	-0.07002474
17	0x3e314184	0.17310148
18	0x3d884f3c	0.06655738
19	0x3c1419b2	0.009039329
20	0xbb0421cd	-0.0020161748
21	0xbd6fd21d	-0.05854999
22	0x3df3275c	0.118727416
23	0x3dc678b0	0.09690988
24	0x3da43ce5	0.08019427
25	0x3d3ee3b9	0.046603892
26	0xbc0da954	-0.008646328
27	0xbdd1075f	-0.10206484
28	0xbdb28382	-0.087164894
29	0x3c83b06e	0.01607534
30	0xbd56be00	-0.052427292
31	0xbd955a15	-0.072925724
32	0xbdf5946f	-0.11991202
33	0xbdb6e863	-0.08931043
34	0xbe3171e3	-0.173286
35	0xbdb716ff	-0.08939933
36	0xbdc69f85	-0.09698395
37	0xbd945601	-0.072429664
38	0xbe5a9dc2	-0.21349242
39	0xbdcfb7e6	-0.10142498
40	0x3d7658c9	0.060143266
41	0xbe371b26	-0.1788145
42	0xbdd54b31	-0.10414732
43	0xbe0a6a6b	-0.13517158
44	0xbdd5a22d	-0.10431323
45	0xbdbfcf67	-0.09365731
46	0xbdca6377	-0.09882253
47	0xbdaf8198	-0.0856964
48	0xbe085d41	-0.13316824
49	0xbd14046a	-0.036137022
50	0xbe231365	-0.15925367
51	0xbe69a3e8	-0.22816432
52	0xbe57a225	-0.21057947
53	0xbe1e1eaf	-0.15441392
54	0xbe12bb7c	-0.14329332
55	0xbe53c805	-0.2068177
56	0xbe65bc00	-0.22434998
57	0xbe4cb6b3	-0.19991569
58	0xbe0813fe	-0.13288876
59	0xbe2cc091	-0.16870333
60	0xbe130041	-0.14355566
61	0xbe1ac4ae	-0.1511409
62	0xbddaedb6	-0.10689871
63	0xbcaf5058	-0.021400616
64	0xbcffc113	-0.031219995
65	0x3e57821c	0.21045727
66	0x3e3cbbee	0.18431064
67	0x3cc42f61	0.023948373
68	0xbd12bf8f	-0.035827216
69	0xbdb1ccae	-0.08681618
70	0x3d4c1d50	0.049832642
71	0xbc4bc929	-0.012438097
72	0xbcf38b7a	-0.029729594
73	0xbd9ba1a9	-0.075991936
74	0xbd010dc1	-0.031507257
75	0x3e259a7f	0.16172217
76	0x3e43ad08	0.19108975
77	0x3df72622	0.1206782
78	0x3dfde2ce	0.12396775
79	0x3df53076	0.11972134
80	0xbd895067	-0.06704789
81	0xbc6f9ec3	-0.014625254
82	0xbd8b3230	-0.06796682
83	0xbdb0d27b	-0.08633896
84	0xbb92c459	-0.004478973
85	0x3ca133ea	0.019678075
86	0xbd07dca0	-0.03316939
87	0x3db38ff4	0.08767691
88	0x3d5390d0	0.051651776
89	0xbd66d2b4	-0.056353286
90	0xbe08f64e	-0.13375208
91	0xbd163b92	-0.036677904
92	0x3dc04f1d	0.0939009
93	0x3e1d393b	0.15353863
94	0xbdd3cbd4	-0.103416115
95	0xbdf5b3a6	-0.11997156
96	0xbbfadc39	-0.007655647
97	0x3e56e893	0.20987158
98	0x3e6a39fe	0.22873685
99	0x3d43adf0	0.0477733
100	0xbe0e5c91	-0.13902499
101	0xbc9220f6	-0.017837983
102	0x3ce97fde	0.028503355
103	0xbd8bafd0	-0.06820643
104	0xbe3752bf	-0.17902659
105	0x3d1aa7b8	0.037757605
106	0x3d9da4de	0.076974615
107	0xbd6c4051	-0.057678524
108	0xbd95100e	-0.07278453
109	0xbd2d832e	-0.04236143
110	0x3e25f2e2	0.16205934
111	0xbd2a544b	-0.041584294
112	0xbd57725a	-0.05259929
113	0xbda3ef23	-0.08004596
114	0xbd9fd7aa	-0.078048065
115	0x3e3e8bb0	0.18607974
116	0xbd2991dc	-0.041398868
117	0xbd2f75cf	-0.04283696
118	0xbd34fe0c	-0.04418759
119	0xbdbd6a9c	-0.0924885
120	0x3dab2a6f	0.08357703
121	0xbcf5da03	-0.030011183
122	0xbe131b13	-0.14365797
123	0x3c93379f	0.017970858
124	0xbe0c6eb5	-0.13714106
125	0x3dc2fad1	0.09520496
126	0x3e1cccbb	0.15312473
127	0x3de87bbe	0.11351727
128	0x3d46f12a	0.048569836
129	0xbd845fac	-0.064635605
130	0x3ddbbf88	0.10729891
131	0x3dcf0a96	0.10109441
132	0xbd937b9a	-0.072013095
133	0xbd8d5c6b	-0.06902393
134	0xbd8ad512	-0.06778921
135	0x3d511401	0.051044468
136	0xbd3608e4	-0.044442073
137	0x3d62c16a	0.055360235
138	0x3ca04c66	0.01956768
139	0xbe021353	-0.12702684
140	0x3ad58bf7	0.0016292323
141	0x3c755af0	0.0149752945
142	0xb86ccd21	-5.6457826e-05
143	0xbcfad105	-0.030617246
144	0xbced7ca4	-0.028990097
145	0x3e58ce79	0.21172513
146	0x3d4ee87f	0.050514694
147	0x3da04530	0.078256965
148	0x3e11ee16	0.14250979
149	0x3dbb54f2	0.091470614
150	0xbba86a72	-0.0051396424
151	0xbdb58e8a	-0.08865078
152	0xbd947c3a	-0.07250257
153	0xbdb4cf2b	-0.08828577
154	0x3d308682	0.043097027
155	0xbdfa3843	-0.12217762
156	0xbdffba1a	-0.12486668
157	0xbc3c7e03	-0.011504653
158	0x3d6991fa	0.05702398
159	0xbc0bcd22	-0.008532794
160	0xbe16d600	-0.14730072
161	0xbe7e8e30	-0.24858928
162	0xbd9d3973	-0.07676973
163	0x3e05bbee	0.1305997
164	0x3d4f0780	0.050544262
165	0xbe5154ef	-0.20442556
166	0xbd4b6f9c	-0.049666986
167	0x3cabca56	0.020970505
168	0x3cf55fc5	0.029952893
169	0xbc8aac33	-0.016927814
170	0xbe0b1300	-0.13581467
171	0xbd85a7b1	-0.06526125
172	0x3cf9c9c3	0.030491715
173	0xbd4bd573	-0.049764108
174	0x3d445c67	0.047939684
175	0x3ddea4c6	0.10871272
176	0x3d11b739	0.035575125
177	0xbde9737e	-0.113989815
178	0xbd974dd0	-0.073878884
179	0x3d11ed94	0.035626963
180	0x3df62516	0.12018792
181	0xbda103f5	-0.07862083
182	0x3ac93a37	0.0015352432
183	0xbd03b324	-0.032153264
184	0xbbe3474a	-0.0069359886
185	0xbc7c564c	-0.015401434
186	0xbe32a702	-0.17446521
187	0xbdad5c83	-0.08464911
188	0xbd22ca73	-0.039743852
189	0x3e234adf	0.1594653
190	0xbdaae4fd	-0.08344457
191	0xbe733d09	-0.23753752
192	0xbe2282a9	-0.15870155
193	0xbb883fea	-0.00415801
194	0x3e7f6c7e	0.2494373
195	0xbe271906	-0.1631814
196	0xbe716292	-0.23572758
197	0xbd43c9b7	-0.047799792
198	0x3cbeeea4	0.023307152
199	0x3e28e491	0.16493441
200	0xbdfec137	-0.124391966
201	0xbc775d0d	-0.015097869
202	0xbcd206b9	-0.025637971
203	0x3e2985a9	0.16554894
204	0x3ca91c9f	0.02064353
205	0xbcfdc711	-0.030978711
206	0xbdde46b8	-0.10853332
207	0x3d3d10fb	0.046158772
208	0xbbdacdae	-0.006677351
209	0x3c983710	0.018580943
210	0x3c8f6771	0.01750538
211	0x3ba288ab	0.0049601397
212	0xbdf3dc16	-0.119072124
213	0xbde41dbb	-0.11138483
214	0xbe05fc0f	-0.13084434
215	0x3da0bb27	0.078481965
216	0xbc560d5b	-0.013064708
217	0xbdfc2db3	-0.12313404
218	0xbe1d8258	-0.15381753
219	0xbe216ef6	-0.15764984
220	0x3dacfa74	0.08446208
221	0xbc3ba850	-0.011453703
222	0xbda7a313	-0.08185401
223	0xbce80a3b	-0.02832519
224	0xbd50a493	-0.0509382
225	0x3c30a909	0.010782489
226	0xbe2f1971	-0.17099549
227	0xbd196194	-0.037446573
228	0x3cb70cc4	0.022344954
229	0x3e520b6e	0.20512173
230	0xbe5dc81e	-0.2165837
231	0xbe42412a	-0.1897017
232	0xbdf2da56	-0.118580505
233	0x3dd102a6	0.10205583
234	0x3eb161a7	0.34644815
235	0xbe984b5a	-0.2974499
236	0xbec2eff7	-0.38073704
237	0xbe1622c3	-0.14661698
238	0x3e4fc15f	0.20288609
239	0x3e9fb760	0.31194592
240	0xbeaf463c	-0.34233272
241	0xbe896834	-0.26837313
242	0xbd778191	-0.0604263
243	0x3e498678	0.19680202
244	0x3e9d935e	0.30776495
245	0xbe94c034	-0.2905289
246	0xbdb6d7e3	-0.08927896
247	0x3ce94f31	0.028480144
248	0x3db63ddc	0.088985175
249	0x3e8d90f5	0.27649656
250	0x3cea5683	0.028605705
251	0x3dd1e10f	0.10248005
252	0x3d967307	0.073461585
253	0xbd56e620	-0.052465558
254	0xbda3b2cb	-0.079930864
255	0x3d503603	0.05083276

conv2.bias f4 [16]
0	0x3ef82bca	0.48470908
1	0x3e6dda51	0.23227812
2	0xbe1ca7d1	-0.15298392
3	0x3f6530a3	0.8952734
4	0xbeb5e85a	-0.35528833
5	0xbd9dd8e4	-0.07707384
6	0xbee9a366	-0.45632476
7	0x3e4f8513	0.20265608
8	0x3f375aa1	0.71622664
9	0xbefef8c8	-0.4979918
10	0xbe644cc8	-0.22294915
11	0x389f4ef4	7.596417e-05
12	0xbefac107	-0.48975393
13	0xbe40b75e	-0.18819949
14	0x3df64de1	0.12026573
15	0x3d2cade3	0.04215802

fc1.weight f4 [120, 400]
0	0xbd57386a	-0.052544035
1	0x3c54726a	0.012966732
2	0xbd5796cf	-0.052634057
3	0xbcd73a00	-0.026272774
4	0xbc3316d2	-0.010930734
5	0x3c21f02e	0.009883923
6	0x3c14d140	0.009083092
7	0x3c6fc01c	0.014633205
8	0x3d16feec	0.036864206
9	0xbc81df56	-0.015853565
10	0xbdcd38f5	-0.10020629
11	0x3d386c5f	0.045025226
12	0x3d5a8565	0.05334987
13	0xb91c66be	-0.00014915594
14	0xbd09c251	-0.03363258
15	0xbd9a18c5	-0.07524256
16	0xbd09747d	-0.033558358
17	0x3d71fbcc	0.059078023
18	0x3d276b7f	0.040874
19	0xbcd4b15d	-0.02596348
20	0xbc563c50	-0.013075903
21	0xbd91750e	-0.071024045
22	0x3d0d71d8	0.034532398
23	0xbcde9320	-0.027169764
24	0xbd36263d	-0.04447006
25	0x3d0a1b5c	0.0337175
26	0xbca97d0c	-0.02068951
27	0xbd56b16d	-0.0524153
28	0xbdb0c476	-0.08631222
29	0xbcecd55d	-0.028910333
30	0x3d4e4e23	0.050367486
31	0xbc88e555	-0.016710917
32	0xbd243f11	-0.040099207
33	0xbd853332	-0.06503905
34	0xbd17a842	-0.037025698
35	0x3bb60566	0.0055548428
36	0x3d372b13	0.044718813
37	0xbd28115f	-0.04103219
38	0xbd80f847	-0.06297355
39	0xbda289b7	-0.07936423
40	0xbca94a80	-0.020665407
41	0x3d8cff22	0.068846
42	0xbc52bebc	-0.012862857
43	0xbd32f4bf	-0.04369044
44	0xbd8d9a22	-0.06914164
45	0xbd84e7e0	-0.06489539
46	0xbb9e892c	-0.0048381295
47	0x3d12faee	0.035883836
48	0x3b665dff	0.003515124
49	0xbd3fdd35	-0.04684182
50	0xbe099a7f	-0.13437842
51	0xbda23bc6	-0.07921557
52	0xbd330509	-0.043705974
53	0xbdc6e8bc	-0.09712359
54	0xbd7c5af9	-0.061610196
55	0xbddd04ac	-0.10791907
56	0xbdab7659	-0.083721824
57	0xbda3e21b	-0.080021106
58	0xbd0d8665	-0.034551997
59	0x3c8778b7	0.016537054
60	0xbd891948	-0.06694275
61	0xbce4bac4	-0.027921088
62	0x3cc2e977	0.023792965
63	0x3d93115e	0.07181047
64	0x3c39c06a	0.011337379
65	0xbc7f3987	-0.01557768
66	0x3cef5e2f	0.029219715
67	0x3d460452	0.048343964
68	0x3d05b4d4	0.032643154
69	0xbcc476b8	-0.02398239
70	0x3c679189	0.014133819
71	0x3d6bf51e	0.05760681
72	0x3d577c30	0.05260867
73	0x3ce8088a	0.028324384
74	0xbc54efda	-0.012996638
75	0x3df2b59b	0.11851045
76	0x3d41feed	0.047362257
77	0x3db655ef	0.08903109
78	0x3d6c7c89	0.057735953
79	0x3d5606cd	0.05225258
80	0x3daad591	0.08341516
81	0xbd31fb50	-0.04345256
82	0x3d0c40e5	0.034241576
83	0xbcb63852	-0.022243652
84	0xbbaf109a	-0.005342555
85	0x3a9dfe10	0.0012053866
86	0x3d5df94a	0.05419282
87	0x3cb7889b	0.022404006
88	0xbcfeb122	-0.031090323
89	0xbcd5d44f	-0.026102213
90	0x3ca4a8d8	0.020100042
91	0x3cd1442c	0.025545202
92	0xbb1b482c	-0.002369414
93	0x3cc1ba13	0.023648297
94	0xbc883d7f	-0.016630886
95	0x3d5511f5	0.05201908
96	0x3cee3843	0.029079562
97	0x3d7693ee	0.06019967
98	0x3d90ca64	0.07069853
99	0x3e120302	0.1425896
100	0xbdcf34ea	-0.101175144
101	0xbdaf1570	-0.08549011
102	0xbdc1ad99	-0.09456939
103	0xbdb1e752	-0.08686699
104	0xbdeac88b	-0.11464032
105	0xbda36c8e	-0.079796895
106	0x3b076643	0.0020660318
107	0xbcc05a09	-0.023480432
108	0xbc9e2680	-0.019305468
109	0xbd8758b7	-0.06608718
110	0x3ce9c3c3	0.02853573
111	0xbc2e57dd	-0.010641065
112	0xbd13fd28	-0.0361301
113	0xbd05c60d	-0.03265958
114	0xbd420e4c	-0.047376916
115	0x3cbf1b08	0.02332832
116	0x3ce242f3	0.027619815
117	0x3d4483a9	0.047977123
118	0x3ccdbaaa	0.025113422
119	0x3c00d47d	0.007863161
120	0x3c200910	0.009767786
121	0x3d983412	0.074318066
122	0x3d91bd7c	0.071162194
123	0x3cc8fdea	0.024535138
124	0x3cc9d9f5	0.024640063
125	0xbdea94b4	-0.11454144
126	0xbd90d580	-0.07071972
127	0xbda8b9ed	-0.082385875
128	0xbb92501f	-0.0044651176
129	0xbc037b99	-0.008025073
130	0xbd70bd36	-0.058774196
131	0x3c00c14d	0.0078585865
132	0xbd1d293e	-0.03836941
133	0x3ceaa267	0.028641893
134	0xbd9d0ef5	-0.076688685
135	0xbc424d0e	-0.011859192
136	0xbce6f2e5	-0.028191993
137	0xbd16f179	-0.03685138
138	0xbc4dad76	-0.012553563
139	0x3d20ae84	0.03922893
140	0xba4ddb47	-0.0007852804
141	0x3c9dd081	0.019264461
142	0xbd1436ec	-0.03618519
143	0xbc03faa4	-0.008055363
144	0xbd4607aa	-0.048347153
145	0xbd6d940e	-0.058002524
146	0xbd219f3a	-0.03945849
147	0x3b0f1d41	0.0021837505
148	0xbce172e3	-0.027520603
149	0xbd5d89ad	-0.054086376
150	0x3c0fa61c	0.008767631
151	0xbda4936e	-0.080359325
152	0xbd73a100	-0.059479713
153	0xbdeb7974	-0.11497775
154	0xbd952829	-0.072830506
155	0x3bbc6441	0.005749256
156	0xbd80ec4a	-0.062950686
157	0xbda0acd3	-0.078454636
158	0xbd8c0ecd	-0.068387605
159	0xbd27360f	-0.04082304
160	0xbc1f2477	-0.009713284
161	0x3ce9302d	0.028465355
162	0x3d3b0e82	0.045668133
163	0xbd02c384	-0.03192474
164	0xbd888902	-0.06666757
165	0x3d1b27d3	0.037879776
166	0x3d4923ac	0.049106285
167	0x3ca2b677	0.019862397
168	0xbbaea5a0	-0.0053298026
169	0xbd9c0239	-0.076176114
170	0x3c8456eb	0.016154727
171	0x3cb99d8e	0.022658136
172	0x3d6b5839	0.057457183
173	0x3c0a12dd	0.008427349
174	0xbd32f8f4	-0.04369445
175	0xbd68325b	-0.056688648
176	0xbd641439	-0.05568335
177	0xbd38242c	-0.04495637
178	0xbd749326	-0.059710644
179	0xbd644854	-0.05573304
180	0xbcd86286	-0.026414167
181	0xbd9c63b6	-0.07636206
182	0xbd07e9c0	-0.033181906
183	0xbd05fcdf	-0.03271186
184	0x3c7d10cb	0.015445898
185	0xbd4db3a1	-0.050220136
186	0xbcbc2b8e	-0.022969987
187	0xbda60692	-0.08106722
188	0xbccaebbf	-0.024770616
189	0xbc38473d	-0.011247453
190	0x3d1929f7	0.037393536
191	0xbc85ea1e	-0.016346987
192	0xbb0a3632	-0.0021089432
193	0xbc9e3935	-0.019314388
194	0xbd7a1e08	-0.061063796
195	0x3d119642	0.035543688
196	0x3d7f90d3	0.062393975
197	0x3c5e4f6b	0.013568739
198	0x3d3bb767	0.045829203
199	0xbd8b9813	-0.06816115
200	0x3d594763	0.053046595
201	0xbbef472c	-0.0073021855
202	0x3d5dcec8	0.05415228
203	0x3d8d9cc0	0.06914663
204	0x3c952e1e	0.018210467
205	0x3d83de1a	0.06438847
206	0x3c8c09a8	0.017094448
207	0x3d9a5ce4	0.07537249
208	0x3db16403	0.08661654
209	0x3bf7eece	0.0075663095
210	0x3d7e6265	0.062105555
211	0x3d9e6802	0.07734682
212	0x3c112367	0.008858538
213	0x3d5b7edc	0.05358778
214	0x3c938626	0.018008303
215	0x3c57bcee	0.013167603
216	0xbccba549	-0.024859088
217	0xbd1d6c04	-0.03843309
218	0xbd15934a	-0.03651742
219	0x3c640f6f	0.013919695
220	0x3db7de4d	0.089779474
221	0xb9f8a3f2	-0.00047424395
222	0x3c979a77	0.018506272
223	0xbc93b421	-0.018030228
224	0xbcd7dc2a	-0.0263501
225	0x3c8e7b28	0.01739271
226	0xbc3e0b39	-0.011599355
227	0xbd734842	-0.059395082
228	0xbd5e0dae	-0.054212265
229	0xbcaf0c7f	-0.021368263
230	0x3c4cc2cd	0.012497616
231	0xb8ff24a9	-0.00012166176
232	0xbcc0466f	-0.023471085
233	0x3bed7851	0.007247009
234	0x3c05bc49	0.008162566
235	0x3d6877d5	0.056754906
236	0x3d3e2929	0.046425972
237	0xbc622792	-0.01380338
238	0x3c8262c2	0.015916232
239	0x3b85b20c	0.0040800627
240	0x3d0b0c24	0.033947125
241	0x3dc33fc9	0.095336504
242	0x3d22b7b8	0.03972599
243	0xbc63096f	-0.01385723
244	0x3cd64ac1	0.026158692
245	0x3d008130	0.031373203
246	0x3d96265a	0.07331534
247	0x3c8f741d	0.017511422
248	0x3c5ce00e	0.013481153
249	0xbc9cc472	-0.019136641
250	0xbd60bed0	-0.054869473
251	0x3d0887a7	0.033332493
252	0x3b57c632	0.003292453
253	0xbc8a0ceb	-0.016851863
254	0x3d7e8553	0.062138867
255	0x3c9e0fcf	0.019294647

fc1.bias f4 [120]
0	0x3e0892fa	0.13337317
1	0xbe25cbb1	-0.16190983
2	0xbcf38ba9	-0.029729681
3	0x3c720841	0.014772476
4	0xbb16f8ab	-0.0023036401
5	0x3dabd45f	0.08390116
6	0x3d804940	0.06263971
7	0x3cd8bb4d	0.0264565
8	0x3d40fd41	0.04711652
9	0x3d176ba5	0.036967892
10	0x3e069166	0.13141403
11	0x3d40d0f3	0.04707427
12	0xbca69252	-0.020333443
13	0xbd395f45	-0.04525687
14	0x3c033308	0.008007772
15	0x3dab2531	0.08356703
16	0x3e8e4948	0.27790284
17	0xbc3ae805	-0.011407857
18	0x3d8f9892	0.07011522
19	0x3da8a501	0.08234597
20	0xbe1ecc8c	-0.15507716
21	0xbd096b57	-0.033549633
22	0x3e14e8b9	0.14541902
23	0x3d82e73b	0.0639176
24	0x3cd8ce3a	0.026465524
25	0x3daf28df	0.085527174
26	0xbde1048d	-0.10987196
27	0x3e302142	0.17200187
28	0xbca25b6b	-0.019818982
29	0xbc20e8cf	-0.009821131
30	0x3d68c5cf	0.05682927
31	0x3db23763	0.087019704
32	0xbda2a2f5	-0.07941238
33	0xbe15eddc	-0.14641517
34	0x3c395040	0.011310637
35	0x3cb7f3d2	0.02245513
36	0x3cd90112	0.026489768
37	0x3e2ac96e	0.16678402
38	0x3d8e4347	0.06946426
39	0xbd3f8d4f	-0.04676562
40	0x3cc96ebc	0.024588935
41	0x3dbfc59a	0.093638614
42	0x3ca57271	0.020196171
43	0x3ca72806	0.020404827
44	0x3df84191	0.12121881
45	0x3d390a78	0.045176
46	0x3c49bb58	0.012312733
47	0xbbb653b7	-0.005564179
48	0xbb304eb6	-0.0026902384
49	0x3d7b19e1	0.061303977
50	0xbd5a31f7	-0.053270306
51	0xbd934d20	-0.07192445
52	0xbde2cb92	-0.11073984
53	0xbbcb413b	-0.0062028444
54	0x3ddc333a	0.10751958
55	0x39d4a985	0.00040562093
56	0xbd924492	-0.07141985
57	0x3cf619ea	0.030041654
58	0x3dbeecfc	0.09322545
59	0xbe378674	-0.17922384
60	0x3dc26b7d	0.09493158
61	0xbd6d19dc	-0.05788599
62	0x3e0dc21e	0.13843581
63	0x3d032df8	0.03202626
64	0x3caff718	0.021480128
65	0xbd5668bc	-0.052345976
66	0xbe026979	-0.12735547
67	0x3d9a2a7d	0.07527635
68	0x3ddc2042	0.1074834
69	0x3cda5a4f	0.02665439
70	0x3dc3e7f1	0.09565724
71	0x3d85b4bf	0.06528615
72	0x3c201b31	0.009772108
73	0xbda48e8c	-0.08035001
74	0xbe033fe3	-0.1281734
75	0x3d0117a1	0.031516675
76	0x3d159ca8	0.036526352
77	0xbdbed5c4	-0.09318116
78	0x3b2570e5	0.0025244292
79	0xbc980c8e	-0.018560674
80	0x3d8b8420	0.0681231
81	0xbd0ea69d	-0.034826864
82	0x3e14e680	0.14541054
83	0xbe1e40a1	-0.15454341
84	0xbdca79ef	-0.09886538
85	0xbd70bcba	-0.058773734
86	0x3e73c329	0.23804916
87	0x3d92d419	0.07169361
88	0x3d4e5285	0.050371666
89	0x3c604d3a	0.013690287
90	0x3d8d47fa	0.06898494
91	0xbdc870fe	-0.097871765
92	0x3e15589b	0.14584582
93	0xbd141b7d	-0.036159027
94	0x3c986d3a	0.01860677
95	0x3d2c106a	0.04200784
96	0x3ba5a481	0.005055011
97	0x3bfe7349	0.007765208
98	0x3c8a5de6	0.016890477
99	0xbcc32490	-0.023821145
100	0xbcb6fe5f	-0.02233809
101	0x3d7dbd4e	0.061948113
102	0xbdbf0b5a	-0.09328337
103	0x3dc3b556	0.095560715
104	0xbcd894f1	-0.026438208
105	0x3cbab252	0.022790108
106	0xbb2f8127	-0.0026779862
107	0x3ce84fcc	0.028358363
108	0xbcdc13e2	-0.02686495
109	0x3d6a7458	0.05723986
110	0x3c9da457	0.019243402
111	0x3ea06447	0.31326506
112	0xbd2f30af	-0.042771038
113	0x3d826b3a	0.06368108
114	0x3d2c57ba	0.04207585
115	0xbb0a3690	-0.002108965
116	0xbca93f20	-0.020659983
117	0x3da11e91	0.07867158
118	0x3dad237b	0.08454033
119	0xbcfe1f53	-0.031020796

fc2.weight f4 [84, 120]
0	0x3c13b303	0.009014848
1	0x3d56f8a6	0.052483223
2	0xbc90ca7d	-0.017674679
3	0xbd455920	-0.0481807
4	0x3c299f66	0.010352945
5	0xbdcf4589	-0.10120685
6	0x3cc4a278	0.024003252
7	0x3d5a061c	0.053228483
8	0x3d4246e2	0.04743088
9	0xbc104628	-0.008805789
10	0xbd6a97fe	-0.057273857
11	0xbddd5add	-0.108083464
12	0xbd849c02	-0.06475069
13	0xbdbee468	-0.09320909
14	0xbdd41db5	-0.10357229
15	0x3daa75e2	0.083232656
16	0xbe03507c	-0.12823671
17	0x3e11e537	0.14247595
18	0xbdeeb1a4	-0.11654976
19	0xbd67b383	-0.05656768
20	0xbd8ad99a	-0.067797855
21	0x3d4936c9	0.049124513
22	0x3d2a9604	0.041646972
23	0x3af5ca62	0.0018752331
24	0xbd1a4d31	-0.03767127
25	0xbc3dd3f1	-0.011586175
26	0xbd0c273b	-0.0342171
27	0xbd2dc5ba	-0.042424895
28	0xbb8f78b5	-0.004378403
29	0x3d13e6f2	0.03610892
30	0xbcc97584	-0.024592169
31	0xbe0245fe	-0.12722012
32	0x3ccbb536	0.024866682
33	0x3cc05363	0.023477262
34	0x3c8e3375	0.017358521
35	0x3da8231d	0.08209822
36	0xbd9c2ec4	-0.07626107
37	0xbd9cb1f4	-0.07651129
38	0xbd94768a	-0.07249172
39	0x3da49bb5	0.08037511
40	0xbd542100	-0.051789284
41	0xbde1929c	-0.11014292
42	0x3d45eaba	0.048319556
43	0x3d19f3e9	0.037586126
44	0xbd1571b8	-0.036485404
45	0x3d67b379	0.056567643
46	0x3bbf77e1	0.005843148
47	0xbd810207	-0.06299215
48	0x3d150821	0.036384705
49	0x3d4eef4c	0.05052118
50	0xbdb5d161	-0.088778265
51	0x3d8eff55	0.069822945
52	0x3e1d1367	0.15339433
53	0xbd02ab96	-0.03190192
54	0x3e235d4f	0.15953563
55	0x3c977f93	0.01849345
56	0xbcf13fcb	-0.029449364
57	0x3da47bc4	0.08031419
58	0xbddefcf0	-0.10888088
59	0x3d084e29	0.033277664
60	0xbbd0d944	-0.0063735563
61	0xbbce4ca4	-0.0062957574
62	0xbbb6886c	-0.005570462
63	0x3c51c2ec	0.012802821
64	0xbc508955	-0.012728055
65	0xbd2e567f	-0.042562958
66	0x3d975a0a	0.073902205
67	0xbbf1b5de	-0.0073764166
68	0x3d3484c2	0.04407192
69	0x3d7ea7fb	0.062171917
70	0xbcb64d5d	-0.022253687
71	0xbd543aa1	-0.051813725
72	0x3cbc1036	0.022956949
73	0xbcc29ca2	-0.023756329
74	0x3d8435f0	0.064556
75	0xbda41cc5	-0.080133
76	0x3dd767ac	0.10517821
77	0x3dd37b19	0.103262134
78	0xbd65ff04	-0.056151405
79	0xbd7f17a2	-0.062278397
80	0x3d0ddf27	0.034636643
81	0xbca12044	-0.019668706
82	0xbd4e957b	-0.050435524
83	0x3c4fa08c	0.012672555
84	0xbd35187d	-0.044212807
85	0xbc8cb78b	-0.017177364
86	0xbdae76df	-0.085187666
87	0xbd22274a	-0.03958825
88	0x3d78c013	0.06073005
89	0xbd04bf71	-0.032409135
90	0xbdc27710	-0.094953656
91	0x3c181935	0.009283354
92	0xbdb2f9d0	-0.08739054
93	0xbd2565ab	-0.04038016
94	0x3be80616	0.0070808036
95	0xbc44455f	-0.01197943
96	0xbd95b0cc	-0.07309112
97	0xbcbd3e1c	-0.023100905
98	0xbd84e0e7	-0.06488209
99	0xbdb9132d	-0.090368606
100	0x3c32d8cb	0.010915945
101	0x3d19ee77	0.037580933
102	0x3d539810	0.05165869
103	0xbcee62b4	-0.0290998
104	0x3cc8aac2	0.024495486
105	0xbdd7ff4e	-0.105467424
106	0xbd58580d	-0.052818347
107	0x3d8105b1	0.06299914
108	0x3d932ca8	0.07186252
109	0x3d7dc630	0.061956584
110	0x3d1b6659	0.037939403
111	0x3d981016	0.07424943
112	0x3c58c8de	0.013231484
113	0xbb9c17ec	-0.004763594
114	0x3aaed4d1	0.0013338571
115	0xbd9f8e2f	-0.07790791
116	0xbcc5b896	-0.024135869
117	0xbdc412cd	-0.095738985
118	0xbdbee16f	-0.09320342
119	0xbda10ec9	-0.07864148
120	0x3e022394	0.12708884
121	0x3dc8032d	0.09766231
122	0xbe14e11e	-0.14539
123	0xbd970eed	-0.07375894
124	0x3d1ca439	0.038242552
125	0xbdd9fa31	-0.10643423
126	0xbdb4d46c	-0.08829579
127	0xbde3d7a4	-0.111251146
128	0x3c99dcb1	0.018781992
129	0x3cc421f6	0.023941975
130	0x3e17872c	0.14797658
131	0x3d3c8282	0.0460229
132	0xbcd04a70	-0.02542612
133	0xbd6ffecd	-0.058592606
134	0xbd00c52a	-0.03143803
135	0xbb324515	-0.002720182
136	0xbdbb6298	-0.09149665
137	0x3d62d503	0.055378925
138	0xbc5f6043	-0.01363379
139	0xbdc0f295	-0.09421269
140	0x3d47498c	0.048654124
141	0x3e3e0265	0.18555601
142	0xbd4f5580	-0.05061865
143	0xbe1b5cf2	-0.15172175
144	0x3c8c7c89	0.017149227
145	0xbd630750	-0.055426896
146	0xbdb3aa8a	-0.08772762
147	0xbd883bef	-0.066520564
148	0xbc9ccc7f	-0.01914048
149	0xbd1dc200	-0.03851509
150	0x3d65d42f	0.056110557
151	0xbe0615e3	-0.13094287
152	0x3e1ad626	0.15120754
153	0x3bf472ae	0.00745996
154	0xbd19ed9f	-0.03758013
155	0x3d88d21c	0.066807
156	0xbd373f2a	-0.044737972
157	0x3d8292d2	0.0637566
158	0xbd283654	-0.041067436
159	0x3d863626	0.06553297
160	0x3d25a83d	0.040443648
161	0xbda1a2e3	-0.07892396
162	0xbd81af3c	-0.063322514
163	0x3d87a20e	0.06622706
164	0x3d734d4a	0.05939988
165	0xbd588cdd	-0.052868713
166	0x3d6aece8	0.057354838
167	0x3d3c4418	0.045963377
168	0xbd035e97	-0.03207263
169	0x3d299652	0.041403122
170	0xbcf0836e	-0.029359546
171	0x3d65429a	0.05597172
172	0x3da58a76	0.0808305
173	0x3db8fb34	0.09032288
174	0x3aa1f25b	0.0012355553
175	0xbc8af22a	-0.016961176
176	0x3dae8cfa	0.08522983
177	0xbabe2009	-0.0014505397
178	0xbbe7a461	-0.007069156
179	0x3db309d5	0.0874211
180	0xbda61cf0	-0.08110988
181	0x3c7b2b4c	0.015330147
182	0x3cc33cb5	0.023832658
183	0x3a2c7461	0.0006578621
184	0xbd8a0d25	-0.06740788
185	0x3d5976d3	0.053091835
186	0x3d1cafca	0.038253583
187	0x3d91c800	0.07118225
188	0xbd7d4461	-0.06183279
189	0x3d8e1ebb	0.06939455
190	0x3daabbbe	0.0833659
191	0xbde36ad4	-0.1110436
192	0x3d0de897	0.034645643
193	0x3c9c589f	0.019085227
194	0x3d7dd720	0.061972737
195	0x3da02e3d	0.07821319
196	0x3d2395e7	0.03993788
197	0xbccc3b74	-0.024930693
198	0xbdc348d5	-0.09535376
199	0xbd55fa37	-0.052240577
200	0x3cebcb28	0.028783396
201	0xbd9aae85	-0.07552818
202	0x3de3ed28	0.11129218
203	0xbcd6e83e	-0.026233789
204	0x3d3e0bc4	0.04639794
205	0x3b15e74e	0.0022873464
206	0x3c02b5a8	0.007977881
207	0xbd423719	-0.047415826
208	0x3d582312	0.05276782
209	0xbd302a8d	-0.04300933
210	0x3c3ffc3e	0.011717854
211	0x3deeaf36	0.116545126
212	0xbcebe26b	-0.028794488
213	0x3dbc47bb	0.09193369
214	0xbd550f49	-0.05201653
215	0xbc058faf	-0.008151933
216	0xbd108913	-0.035286974
217	0xbbe2e4f5	-0.0069242665
218	0x3caaac29	0.020834045
219	0x3dc22030	0.094787955
220	0x3d850a1f	0.06496071
221	0x3dd9cf77	0.10635274
222	0xbbc2bf8c	-0.0059432443
223	0xbd1c89e5	-0.038217444
224	0x3be9b45c	0.007132096
225	0xbd5642c6	-0.052309774
226	0x3bbb0942	0.0057078907
227	0x3d90c57d	0.07068918
228	0x3d3ccfbb	0.046096545
229	0xbdd5fcc5	-0.104486026
230	0x3cb3a7a2	0.02193052
231	0x3cb76423	0.022386616
232	0x3caa52a8	0.020791367
233	0xbca445e6	-0.020052861
234	0xbe0dcf87	-0.13848697
235	0x3dbb1997	0.0913574
236	0xbcf6ae66	-0.030112457
237	0xbdd9bcfd	-0.1063175
238	0xbb097e9d	-0.0020980008
239	0x3dbb9a8a	0.09160335
240	0xbd5e45d3	-0.05426581
241	0xbd672169	-0.056428347
242	0x3b8f387b	0.0043707467
243	0x3cde6b09	0.027150648
244	0x3cc431df	0.023949562
245	0xbd89d941	-0.06730891
246	0xbd1fefd6	-0.039047085
247	0xbc8d945c	-0.017282657
248	0xbc847898	-0.016170785
249	0xbca34728	-0.01993139
250	0x3c21d070	0.0098763555
251	0x3dd17172	0.10226716
252	0xbd329d2a	-0.043606915
253	0x3d50fc23	0.051021706
254	0x3c99fad3	0.01879636
255	0xbd993e15	-0.07482544

fc2.bias f4 [84]
0	0x3d0c2378	0.034213513
1	0xbccc3c93	-0.024931228
2	0x3c9c5a51	0.019086035
3	0xbd28dfe6	-0.04122915
4	0xbd3ee4a4	-0.046604767
5	0x3d1f798f	0.038934287
6	0xbd0ed13e	-0.034867518
7	0xbc7b76af	-0.015348121
8	0x3edbf207	0.4295809
9	0x3c046004	0.0080795325
10	0x3d0cc2bc	0.0343654
11	0xbd12d2c9	-0.03584555
12	0xbd055c42	-0.032558687
13	0xbd615e73	-0.055021714
14	0xbe39fb71	-0.18162324
15	0x3c33c262	0.010971637
16	0x3d10e609	0.03537563
17	0x3de9512c	0.113924354
18	0xbdcd5dc0	-0.10027647
19	0xbd0c6e96	-0.03428515
20	0xbd8c851f	-0.06861328
21	0xbdce3fc2	-0.100707546
22	0x3cd4e910	0.02599004
23	0x3d83b63e	0.06431244
24	0xbd94a3ff	-0.07257842
25	0x3ec5ef32	0.38659054
26	0x3d2c44fa	0.04205797
27	0x3db2d3eb	0.087318264
28	0x3e95e54a	0.29276496
29	0xbd5ce648	-0.05393055
30	0x3e88ad05	0.26694503
31	0xbd886767	-0.066603474
32	0xbd04ce47	-0.032423284
33	0x3e87b862	0.2650786
34	0xbd0c5fd4	-0.034271076
35	0xbd9c9e3b	-0.076473676
36	0x3da95b84	0.08269408
37	0x3d4e8872	0.050423093
38	0x3dc05bcf	0.09392511
39	0xbd960553	-0.07325234
40	0xbc4fb0da	-0.012676442
41	0x3d8e0148	0.06933838
42	0x3b97a2ab	0.004627546
43	0xbd792856	-0.060829483
44	0xbcb26611	-0.021777185
45	0xbd36a9b1	-0.044595424
46	0x3e590303	0.21192555
47	0x3dbcb4a4	0.09214142
48	0xbd072a71	-0.03299946
49	0x3e28f056	0.16497931
50	0xbb907d59	-0.004409474
51	0xbca3514c	-0.019936226
52	0x3e7e9773	0.24862461
53	0x3cdc00cb	0.026855847
54	0x3e9492a1	0.2901812
55	0xbcdf2a16	-0.027241748
56	0x3d6b0543	0.057378065
57	0xbe09a187	-0.13440524
58	0xbe3a2d69	-0.18181385
59	0x3d21f369	0.039538775
60	0x3e0f388f	0.13986419
61	0xbced8012	-0.028991733
62	0xbdf2ced4	-0.118558556
63	0xbd6ede25	-0.058317322
64	0x3e41ae9f	0.18914269
65	0x3dc8564a	0.09782083
66	0xbd3ba512	-0.04581172
67	0x3ddcc723	0.1078017
68	0xbd85fbec	-0.06542191
69	0x3e2bdd59	0.16783656
70	0x3e6b96a6	0.23006687
71	0x3d5a0f1f	0.053237077
72	0x3f0bafd1	0.5456515
73	0xbd9f3ba2	-0.07775046
74	0x3e0ef6c5	0.13961323
75	0x3eccea39	0.40022448
76	0xbbcdb8a2	-0.0062781135
77	0xbd900a91	-0.070332654
78	0x3d59cbd4	0.0531729
79	0xbdadb897	-0.08482473
80	0xbdfb7253	-0.12277665
81	0x3e70b607	0.23506938
82	0x3d9f7464	0.077858716
83	0xbb4dc939	-0.0031400456

fc3.weight f4 [10, 84]
0	0xbe238f82	-0.15972713
1	0x3cceef9b	0.025260737
2	0x3d89ec1c	0.067344874
3	0xbbc0b58a	-0.005881016
4	0x3e826f1c	0.25475395
5	0x3e2ff10d	0.17181797
6	0x3d42fbb6	0.04760333
7	0xbdab12ff	-0.083532326
8	0xbe5c31e9	-0.21503414
9	0x3e1eac35	0.1549538
10	0x3eb18c17	0.34677193
11	0x3dde859e	0.10865329
12	0x3d747c70	0.059688985
13	0xbdb304ce	-0.08741151
14	0xbde5f1d4	-0.11227766
15	0xbdb1f561	-0.086893804
16	0xbddacfce	-0.10684167
17	0x3e0f24b9	0.13978852
18	0xbc5b9d9e	-0.013404278
19	0xbe312a6c	-0.17301339
20	0xbdb7ec4d	-0.08980618
21	0x3de4fd07	0.11181074
22	0x3dcdbb55	0.100454964
23	0xbe521692	-0.20516422
24	0xbcd32792	-0.025775705
25	0xbe89e5d6	-0.26933163
26	0x3d8d8881	0.06910802
27	0x3e2d13b2	0.16902044
28	0xbcb75929	-0.022381382
29	0x3de31476	0.11087887
30	0xbc7b3724	-0.015332971
31	0x3d7e5410	0.062091887
32	0xbe009ac4	-0.12559038
33	0x3eda81e4	0.42677224
34	0xbdd40953	-0.10353341
35	0xbd66babd	-0.05633043
36	0x3de9ef7a	0.1142263
37	0x3d152ee6	0.03642168
38	0x3de2250b	0.11042222
39	0x3e18eee7	0.14934884
40	0x3e8c26e8	0.27373433
41	0x3d967913	0.07347312
42	0x3e1fe3f2	0.15614298
43	0x3ddf4e5a	0.10903616
44	0xbdd61f9f	-0.1045525
45	0xbd0699c4	-0.032861486
46	0x3dd309cc	0.10304603
47	0x3d823637	0.06357997
48	0xbe3b568c	-0.18294734
49	0x3dd242b7	0.10266631
50	0x3db2f403	0.08737948
51	0x3c6b98bb	0.0143796755
52	0xbe2e878d	-0.17043896
53	0xbd8e8855	-0.06959597
54	0xbe777781	-0.24166681
55	0xbb28e843	-0.0025773204
56	0x3c4d5df6	0.012534609
57	0x3e1e3247	0.15448867
58	0x3d06ffd4	0.03295882
59	0xbe11731d	-0.14204068
60	0xbe8e6120	-0.27808475
61	0xbdd487fc	-0.103774995
62	0x3ce4d6e9	0.027934508
63	0xbd8f447d	-0.06995485
64	0xbcaf14b2	-0.021372173
65	0xbc061df6	-0.008185854
66	0xbd5aacbc	-0.05338739
67	0xbdad6c77	-0.08467954
68	0xbd35c6c0	-0.044378996
69	0x3df0c392	0.11756052
70	0x3dd55c14	0.10417953
71	0x3e7bb5af	0.24581026
72	0x3e16f3c0	0.14741421
73	0x3cb2b022	0.021812502
74	0xbd0ae1b3	-0.03390665
75	0x3e95701c	0.29187095
76	0xbd26e740	-0.04074788
77	0xbd76c7a6	-0.060248993
78	0x3db01c8e	0.085991964
79	0x3d948562	0.07252003
80	0xbd3807e9	-0.04492942
81	0xbe27c628	-0.16384184
82	0xbded2b3f	-0.11580514
83	0xbd8c8a5a	-0.06862326
84	0xbd124e31	-0.0357191
85	0x3e2eb27d	0.17060275
86	0xbdf6d24c	-0.1205183
87	0x3d421c86	0.047390483
88	0x3e497309	0.19672789
89	0xbe26a45d	-0.16273637
90	0xbce15475	-0.027506093
91	0x3be8ac04	0.007100584
92	0xbe92b660	-0.28654766
93	0x3e5b89e9	0.21439327
94	0xbd0bf4cd	-0.034169007
95	0x3d63b957	0.055596676
96	0xbe5f5503	-0.21809773
97	0x3e8050d3	0.25061664
98	0x3dcf5a46	0.1012464
99	0x3d904bb8	0.07045692
100	0x3e17932f	0.1480224
101	0x3e8d5290	0.27602053
102	0x3def909e	0.116975054
103	0xbe15c178	-0.14624584
104	0xbd5be635	-0.05368634
105	0x3ed74af9	0.42049387
106	0xbcd42509	-0.025896566
107	0x3d82db88	0.063895285
108	0x3dbaadcf	0.091151826
109	0xbe36edae	-0.17864105
110	0xbd129066	-0.03578224
111	0x3dcedb48	0.10100418
112	0xbe3cec51	-0.18449523
113	0x3e25d04d	0.16192742
114	0xbe22f427	-0.15913449
115	0xbd0c7ed1	-0.03430063
116	0x3d215339	0.039386008
117	0xbd5df2d5	-0.05418666
118	0x3c9ce501	0.019152166
119	0x3ce36a29	0.027760582
120	0xbdf0cb83	-0.11757567
121	0xbdde5a78	-0.10857099
122	0xbdb2f019	-0.08737201
123	0xbe13b853	-0.14425783
124	0x3e632f05	0.22185905
125	0xbe781bdd	-0.24229379
126	0x3d92379d	0.07139514
127	0xbe13d1d0	-0.14435506
128	0x3dbb1c81	0.09136296
129	0xbdacee56	-0.084438965
130	0x3ca52b2d	0.02016219
131	0x3e2976ee	0.16549274
132	0x3e49d9ba	0.19711962
133	0xbe920e53	-0.28526554
134	0xbb9b226e	-0.004734329
135	0x3ccf1b5b	0.025281599
136	0xbd9f7176	-0.07785313
137	0x3cca0f04	0.024665363
138	0xbe2d2f36	-0.16912541
139	0x3d7a91a5	0.061174054
140	0x3d6b6f31	0.057479087
141	0x3d4b3c75	0.049618203
142	0x3de4b26a	0.11166842
143	0x3e2b1090	0.16705537
144	0xbdfc2ccf	-0.12313234
145	0xbcffe143	-0.031235343
146	0xbde01ff7	-0.10943597
147	0xbd6b3b31	-0.057429496
148	0xbde3fd32	-0.111322775
149	0x3d9d4c86	0.07680611
150	0xbde14ab9	-0.1100058
151	0xbe033cbf	-0.12816142
152	0x3da32b04	0.07967189
153	0x3e33cce6	0.17558631
154	0x3df12da5	0.11776284
155	0xbdb98fc1	-0.09060622
156	0xbe384dc2	-0.17998412
157	0xbcfbcd2f	-0.030737488
158	0x3cee124c	0.029061459
159	0xbd95bd64	-0.07311514
160	0xbddd38e0	-0.10801864
161	0xbbdce1ec	-0.006740799
162	0xbe785539	-0.2425126
163	0x3da0f5f3	0.07859411
164	0x3d09c3f3	0.033634137
165	0xbe973410	-0.29531908
166	0x3e902ce5	0.28159252
167	0xbde058f2	-0.10954465
168	0xbd0db65c	-0.03459774
169	0xbe1503c0	-0.14552212
170	0xbdb4f844	-0.088364154
171	0x3d8de053	0.06927552
172	0xbe1ccf77	-0.15313517
173	0x3e20fc64	0.1572128
174	0xbe2a5d08	-0.16637051
175	0x3d3f0acf	0.046641167
176	0xbd814ec0	-0.063138485
177	0xbd54aee8	-0.051924616
178	0x3db8eaf2	0.09029187
179	0x3e4fd345	0.20295437
180	0xbceb3ca3	-0.028715437
181	0xbe399913	-0.181248
182	0xbc406b57	-0.011744342
183	0xbd150b16	-0.036387525
184	0xbe3856f9	-0.18001927
185	0xbd964891	-0.0733806
186	0xbde5f09c	-0.11227533
187	0x3e3e44e5	0.18580969
188	0x3d95aa62	0.073078886
189	0xbe08a571	-0.13344361
190	0xbbcd2ff0	-0.006261818
191	0x3e215b6d	0.15757532
192	0x3ccbb5d1	0.02486697
193	0x3e2f0219	0.17090644
194	0xbd7f439d	-0.06232034
195	0x3dbf8dbf	0.09353208
196	0x3e8803ce	0.26565403
197	0x3a9497de	0.0011336764
198	0xbba85c74	-0.0051379744
199	0xbc8fab05	-0.017537603
200	0xbd9da0f6	-0.076967165
201	0x3e3637f8	0.17794788
202	0x3d368d6a	0.044568457
203	0xbd7af7f6	-0.06127163
204	0x3e03f315	0.12885697
205	0x3ca7441c	0.02041822
206	0xbd4944d9	-0.049137924
207	0xbd3b518b	-0.045732062
208	0xbdf0ff54	-0.1176745
209	0xbdd1c6b0	-0.10242975
210	0xbbd728bd	-0.0065661357
211	0xbda66781	-0.081252106
212	0xbdb4b69c	-0.088238925
213	0x3e9b54f6	0.30338258
214	0xbe0c08f1	-0.13675286
215	0x3e44201a	0.19152871
216	0x3d227116	0.03965863
217	0x3dfc66ee	0.1232432
218	0x3c3d1756	0.011541208
219	0x3dca538e	0.09879218
220	0x3d9004e4	0.07032183
221	0xbe01be0d	-0.12670155
222	0x3e0a8dae	0.13530609
223	0x3da9bd68	0.082880795
224	0xbd5a1ff9	-0.053253148
225	0xbcbda0a7	-0.023147894
226	0xbc831669	-0.016001897
227	0xbd80fc7c	-0.062981576
228	0x3e2bfc48	0.16795456
229	0xbdf6a3e1	-0.12042976
230	0xbcd36b43	-0.025807982
231	0x3db4d42b	0.0882953
232	0x3e4b538f	0.19856094
233	0xbe2015d6	-0.1563333
234	0xbd8266a1	-0.06367231
235	0x3ca389e9	0.019963222
236	0xbdee1991	-0.1162597
237	0x3daad53f	0.08341455
238	0x3e21943b	0.15779202
239	0x3e4b2dd9	0.19841708
240	0x3c9d1082	0.01917291
241	0xbcd24ab6	-0.02567039
242	0xbdc06491	-0.093941815
243	0x3d4f8d5d	0.050671924
244	0x3dc4b4f4	0.096048266
245	0xbd961612	-0.07328428
246	0x3e980d14	0.29697478
247	0x3d377293	0.044787
248	0xbc800c87	-0.015630974
249	0xbd4c40e9	-0.04986659
250	0xbdd6f397	-0.1049568
251	0x3cc4e9dc	0.024037294
252	0xbc7fabb8	-0.015604906
253	0xbe5db3f7	-0.21650682
254	0x3dc985dd	0.098399855
255	0x3d92ab43	0.07161572

fc3.bias f4 [10]
0	0xbe0200a0	-0.12695551
1	0xbee8bf74	-0.45458567
2	0x3e458864	0.1929031
3	0x3ea2d4d4	0.31803
4	0x3ecaf4db	0.39639935
5	0xbde886d0	-0.113538384
6	0x3e3db01d	0.18524213
7	0xbea0d00e	-0.31408733
8	0x3ee2666a	0.4421876
9	0xbe9cb296	-0.30605
